model_cnn.pth (torch, 435171 bytes, 8 tensors)

conv1.weight f4 [6, 3, 5, 5]
000000 44 e9 1e be 27 41 16 3d b8 2c 43 bd c9 08 94 bd
       -0.15518671 0.036683228 -0.04765007 -0.07228238
000010 5d 73 28 be 8c 39 cf bc 6e 4e 09 3d cd 89 4d 3d
       -0.16450258 -0.025295995 0.033522062 0.050180245
000020 f8 19 99 3d 5a 09 a6 bc 46 6f 85 3d 40 f4 a5 3b
       0.07475656 -0.020268131 0.06515364 0.0050645173
000030 f7 43 46 bc c3 32 49 3d ed d2 e7 3d f2 c7 d9 3d
       -0.012101165 0.049120676 0.11319528 0.1063384
000040 f8 f4 43 3e 3f de 74 3e d1 97 80 3e cf 22 00 3e
       0.19136417 0.23912905 0.25115827 0.12513278
000050 a4 c2 48 3e 4a ad 14 3e 5b f5 8f 3d 8f 56 00 3e
       0.196055 0.1451923 0.0702922 0.1253302
000060 76 d1 37 3e eb 18 ed 3c ff f6 35 bc 91 1c c0 3d
       0.17950997 0.028942546 -0.011106252 0.093804486
000070 4f 84 c8 3d 22 5f ee 3d 3d d1 59 bd 97 ef 09 be
       0.09790861 0.11639239 -0.05317806 -0.13470303
000080 ee 7f 48 bd f1 0a e7 bd ec 5a eb bc 2c 3e 1e be
       -0.04895013 -0.11281384 -0.028729878 -0.15453404
000090 ef 0d ef bd 50 f5 65 bd 85 db 09 3d 68 c9 b0 bd
       -0.116725795 -0.05614215 0.033656616 -0.08632165
0000a0 3a 52 c4 bd c4 b7 31 be c5 d6 34 be 47 95 1c be
       -0.09585996 -0.17355257 -0.17660053 -0.1529132
0000b0 2d 86 ee bd b9 d0 0c be 64 66 e9 bd ae d5 24 bd
       -0.11646686 -0.13751496 -0.113964826 -0.040242843
0000c0 09 6d ad bd bb 80 c1 bd 66 56 f7 bc 08 bc a6 3d
       -0.084680624 -0.094483815 -0.030192565 0.08141333
0000d0 0d fd cf 3d c9 cc a0 3d b3 33 89 3c cd 72 2f 3c
       0.101556875 0.0785156 0.016748285 0.010708523
0000e0 63 ed 05 3e c2 d6 1d 3e 34 bd e5 3d 30 78 54 bc
       0.13078837 0.15413955 0.11217728 -0.012968108
0000f0 39 ef 93 3c b1 9a 3b 3e cd d3 58 3e d6 36 98 3d
       0.018058406 0.18320729 0.21174546 0.07432334
000100 2f be 2a 3d fb d8 9c 3b a3 00 db 3c b9 c5 19 3c
       0.04168528 0.0047866083 0.026733702 0.00938552
000110 79 94 98 bd 3f f0 62 3c d2 ea 08 bd 50 98 b4 bc
       -0.07450194 0.013851224 -0.033427067 -0.022045285
000120 72 68 af 3c c7 17 52 3c a2 8e 59 bd f8 b7 0a 3d
       0.021412108 0.012823052 -0.05311454 0.033866853
000130 ca 9c da bd 07 9f a4 bb f3 bc 08 3d 41 66 ac bc
       -0.106744364 -0.0050238403 0.03338332 -0.021044852
000140 50 7f 81 3d 5a 1f a9 bd a8 aa 18 3c fd 5b d7 bc
       0.06323111 -0.08257933 0.009318031 -0.02628898
000150 a5 c5 2c be 3e 29 d2 bd b0 75 21 be f3 81 75 3e
       -0.1687227 -0.102617726 -0.1576755 0.23975353
000160 6b b8 78 bd aa 3b 9c bd 9e 69 24 3e 47 45 a4 be
       -0.06072275 -0.076285675 0.16055915 -0.32084104
000170 e8 f9 ce bc 0b 78 08 3e 9c 72 04 bd 77 d6 e3 3c
       -0.025265649 0.13327043 -0.032335863 0.027812226
000180 6c 81 19 be fd 0c 2d bd e3 d9 cd bc 9b ec a6 bd
       -0.14990777 -0.042248715 -0.02512831 -0.08150598
000190 de 1f dd 3d 6d fe 79 3d 43 42 7a 3d 3c 88 3b 3d
       0.10797094 0.061033655 0.06109835 0.04578422
0001a0 0d 84 d4 3d 81 85 d3 3d e0 36 13 bc bf 69 c6 3d
       0.10376749 0.10328198 -0.008985251 0.09688138
0001b0 cf 18 2f 3e c2 b5 8a 3c 31 76 dd bc b5 c2 5a 3d
       0.17099307 0.016932372 -0.027033897 0.053408343
0001c0 42 b3 50 3e 5e ef d2 3d 2e 6c 12 3e 4c 28 56 3e
       0.20380881 0.10299562 0.1429908 0.2091381
0001d0 08 5c 65 be 42 2d 2b 3e 5b e7 1d 3e 51 31 2f 3e
       -0.22398388 0.16716483 0.15420286 0.17108656
0001e0 af 1f 6a 3d 3f ef 53 3d 16 d1 82 3d 4d cc 0b 3d
       0.057159122 0.051741835 0.06387536 0.034130383
0001f0 dd 1a 51 3c 7e 7f b7 ba d9 0a 00 be f3 1b b6 bd
       0.012762752 -0.0013999788 -0.12504138 -0.0889205
000200 dc bd 7e 3d f5 4c 0b be 2f 0e fd bc 78 3f 87 3d
       0.062192783 -0.13603576 -0.030890552 0.066039026
000210 fe a5 14 bd 0b 31 de bd b1 23 ed bd 6d 64 49 bd
       -0.036291115 -0.10849198 -0.11579073 -0.04916804
000220 53 a1 10 be 69 5a 86 3e c7 52 7d bd 7c 9e 7b 3d
       -0.1412404 0.26240852 -0.06184652 0.06143044
000230 d4 82 df 3c 5c 59 60 be db 22 f2 3d 16 80 e1 3d
       0.027284063 -0.21909088 0.118230544 0.110107586
000240 ac 29 9b bd d9 78 2b 3d 3b 4c 72 bc ce f2 09 be
       -0.07576308 0.041863296 -0.014788683 -0.13471529
000250 d6 f0 d9 bd b4 cd 77 bd 44 eb 08 be b9 d1 4b 3d
       -0.10641639 -0.06049891 -0.13370997 0.049760554
000260 ac b7 25 be ef f3 f4 3b ff 90 57 bd c0 7e 0c be
       -0.16183347 0.007475368 -0.052628513 -0.13720226
000270 4c 32 6b 3d 73 78 d4 bc 9f 36 22 3e 62 d3 c5 3d
       0.057421014 -0.02593634 0.15841149 0.09659459
000280 b5 22 d7 3c be 23 af 3d 75 39 1b 3e 20 5e 8c 3e
       0.026261667 0.08551739 0.15158637 0.27415562
000290 f1 cc e3 bc 66 69 3d bc c0 6c da bc 9d f5 6d 3e
       -0.027807685 -0.0115607735 -0.026663184 0.23238225
0002a0 8a 13 49 3e df a3 c9 bd 81 f8 bb bd 2b 1b d6 3d
       0.1963636 -0.09845709 -0.09178258 0.10454401
0002b0 6d 51 d3 3d b7 8a 1b bd fe 81 e2 bd 65 b2 13 3b
       0.10318265 -0.037974086 -0.1105995 0.0022536751
0002c0 c4 c3 1c 3d 40 f5 50 3d f6 01 e1 3d 76 9b 7e bd
       0.038272634 0.05101514 0.10986702 -0.062159978
0002d0 96 36 ae 3d c3 80 5f ba e2 6d aa 3c a7 52 a0 3d
       0.08506505 -0.0008525962 0.02080435 0.07828265
0002e0 f2 f2 60 bd 4a 3c 4d 3e 49 b9 c0 3d f2 a9 8c 3d
       -0.05491919 0.2004253 0.0941034 0.06868352
0002f0 fd 98 d6 bc 4e 55 81 bd 8a 1a b4 3c 75 4b ca 3c
       -0.026195997 -0.06315099 0.021985311 0.024694184
000300 2c bb 93 bd 3b dc cd bc 56 49 43 be 41 62 07 3e
       -0.072134346 -0.025129428 -0.19070944 0.13221075
000310 68 f4 08 3e bc 95 24 3d 2b 2e 27 bd 63 1b 2b bb
       0.13374484 0.04018186 -0.040815514 -0.0026108853
000320 f9 7b 3e 3d 84 7d aa bd 3e 05 15 3d 30 68 fc bc
       0.04650495 -0.083247215 0.036381952 -0.0308114
000330 31 8a 8d bc bc 96 0b ba 69 da bd bc b8 e1 2c be
       -0.017277809 -0.00053248904 -0.023175435 -0.1688298
000340 61 5e 44 bd 97 58 04 be f3 85 08 be 98 4d 2d bd
       -0.04794157 -0.1292442 -0.13332348 -0.042310327
000350 05 6a 51 be d0 3f ed bd ab 41 27 bd fe ff c8 bd
       -0.204506 -0.11584437 -0.04083411 -0.09814452
000360 af 94 50 be 90 ce 55 be 01 9c 02 be eb 1e e7 3d
       -0.20369218 -0.20879579 -0.12754823 0.11285194
000370 01 c6 a7 bd 2e 39 10 bd e8 f7 01 be d9 fe 64 3d
       -0.08192063 -0.03521078 -0.12692225 0.055907104
000380 37 df 22 3e 9d d6 c6 bc 0b 5a 56 3c 88 d2 e9 bd
       0.15905462 -0.024272257 0.013082991 -0.11417109
000390 a6 ed 3f 3c 0d fc 44 3d 22 7c ee bc 33 be aa 3c
       0.011714375 0.048091937 -0.029111926 0.020842647
0003a0 f0 d4 23 be 44 ad 07 be 8f 4e d6 bb 38 70 cd bd
       -0.15999198 -0.1324969 -0.0065401266 -0.1003117
0003b0 30 1f 44 be d8 b2 5d be 37 5d da bd 81 86 70 bd
       -0.19152522 -0.21650255 -0.106623106 -0.058722023
0003c0 f8 92 58 bd e9 c9 1d be bd 8e 82 be ae b0 97 bd
       -0.052874535 -0.15409054 -0.25499526 -0.07406746
0003d0 d9 28 2b be ae 94 7b bd 9d 1a 90 bd 92 60 84 bd
       -0.16714801 -0.06142109 -0.07036326 -0.06463732
0003e0 c9 04 7f bc 4d 41 e5 bd 97 ba dc bd 31 d9 04 be
       -0.015565106 -0.11194096 -0.10777777 -0.12973477
0003f0 1f 22 9a 3c ce a2 28 bc fd fd d1 bd b4 84 7e 3c
       0.018815098 -0.010292722 -0.102535225 0.015534569

conv1.bias f4 [6]
000000 cc d3 53 be bd 4c 5c bd f9 3a fc 3b 9f ac f4 3c
       -0.20686263 -0.05378412 0.00769746 0.029867468
000010 8f e2 2e 3d 03 9c ae 3c
       0.04269653 0.021314627

conv2.weight f4 [16, 6, 5, 5]
000000 ed ae 69 bc 9f b7 14 bc de a9 5e be e3 c8 a1 bd
       -0.014262897 -0.009076982 -0.21744487 -0.07899644
000010 33 7f 2d bb e3 27 1b 3e 25 d6 99 3d eb a5 43 3d
       -0.0026473522 0.15151934 0.07511548 0.047765654
000020 9f 60 c8 bc 6b 65 db bb 69 9a 0e 3d 4c 0a 1e 3d
       -0.024460135 -0.0066954396 0.034815226 0.03858404
000030 80 49 04 bd c4 b3 83 3d 2a ce 0d 3c 6d 79 c2 3d
       -0.032296658 0.06430772 0.00865511 0.094958164
000040 24 b6 9c 3c 95 48 78 bc e1 fe 18 bd 4f c8 84 3d
       0.01912982 -0.015154024 -0.037352446 0.06483518
000050 7c 0a 9c bc 43 7b 4c bd 8c d5 eb bd 8b 05 dc bd
       -0.019047968 -0.04992224 -0.1151534 -0.10743245
000060 37 c8 45 3d f7 b7 bd 3d b6 3e 0d 3d 78 e2 06 bc
       0.048286643 0.09263604 0.034483634 -0.008232705
000070 34 17 11 3b b2 f9 af 3c 9a 36 53 bc 69 92 31 bd
       0.0022139074 0.021481369 -0.012891436 -0.04335252
000080 8b 31 4d bd 47 e5 dc bd 29 e5 ff bd 23 c8 fd bc
       -0.050096076 -0.10785919 -0.12494881 -0.030979222
000090 89 a3 b9 bd 52 72 8c bd 10 26 2d 3c e0 97 59 3d
       -0.09064395 -0.06857742 0.010568157 0.053123355
0000a0 4e ea 02 3d a6 78 41 bd 8b 5c 90 bd f9 ed a5 bc
       0.03196173 -0.0472342 -0.07048901 -0.020255076
0000b0 d8 2a 94 3c 3f 1b 1d 3e d2 55 53 3d c5 25 2d 3c
       0.018086836 0.15342425 0.051595517 0.010568087
0000c0 01 4a b6 3d c1 a5 18 3e f3 b4 73 be cf 9f a3 be
       0.08900834 0.1490698 -0.23799495 -0.31957862
0000d0 10 5a c2 be d8 23 89 be 51 35 4f be 08 aa be 3c
       -0.37959337 -0.2678516 -0.20235182 0.023274437
0000e0 ec cc aa 3d 5f ce b6 3d 5c a1 50 3d 14 73 c9 3d
       0.08339867 0.08926081 0.050935134 0.098364025
0000f0 62 92 02 3e df b5 82 3e dd 6a 60 3e ab 59 a3 3d
       0.12751153 0.25529382 0.21915765 0.07976087
000100 ba f7 be 3d 7a 05 c8 3d 45 27 12 3d 83 1d 1f bb
       0.09324594 0.097666696 0.03568198 -0.0024279065
000110 f4 82 0e 3d d7 85 8c bd 0b 87 7b ba 9b 0d c8 bc
       0.034792855 -0.068614654 -0.0009595013 -0.02442055
000120 f4 d1 66 3d 38 81 4a bd f8 fa 21 bc d2 c2 19 3e
       0.05635257 -0.04943964 -0.009886496 0.15015724
000130 a7 71 f8 bc e2 e8 a8 ba ed 23 f7 3d 4e 0f 00 3e
       -0.030327631 -0.0012886787 0.12067399 0.12505838
000140 01 9c 89 bc 02 8d e8 bd 8d 5b af bd 6a c0 50 bc
       -0.016798021 -0.1135502 -0.08562384 -0.012741188
000150 35 3b 49 bd 44 49 93 bc 0e 52 57 3d 28 07 a9 bb
       -0.04912873 -0.017979272 0.052568488 -0.005158324
000160 b8 dc 6f 3d f1 21 b2 3c b4 2b 5c bd dc 8b 64 bd
       0.058560103 0.0217447 -0.053752616 -0.055797443
000170 40 5a 1a bc e2 cf 11 3c 06 ec c0 3d ed 33 e8 bd
       -0.009420931 0.008899661 0.09420018 -0.11338029
000180 de fd d4 bd f6 4d 00 be c6 4e 34 bc 1d 2d 8f 3d
       -0.10399984 -0.1252974 -0.011005109 0.069910266
000190 a6 da 2d bd 79 ae 9d bc a8 cb 0a be e1 74 84 be
       -0.042444848 -0.019248234 -0.13554251 -0.25870422
0001a0 a1 37 11 be 68 15 3d 3e 47 97 c1 3e 06 e9 ea 3e
       -0.14181377 0.18465197 0.37810728 0.45880908
0001b0 f5 30 cd 3e f1 59 d4 3d fc c1 47 3e 3f 3b 25 3d
       0.40076414 0.103687175 0.19507593 0.040339705
0001c0 a4 7c 30 bd fd 9b 62 3d a8 ac 3f 3e 10 8a 98 bd
       -0.043087617 0.055324543 0.18718207 -0.07448208
0001d0 59 85 a4 be 99 27 e2 be 17 3f 7d be a1 a1 01 be
       -0.32132986 -0.44170836 -0.24731098 -0.12659313
0001e0 dd 07 87 be 23 6f e1 be 7d 43 cb be 42 fb c4 be
       -0.26373187 -0.44030103 -0.39699927 -0.38472944
0001f0 bf db 8f be ac 94 c4 3c ef ec cf 3c db 6b 40 3c
       -0.2809734 0.023996674 0.025381533 0.011744465
000200 42 78 32 bb c3 d4 46 be ff 12 89 bd cd 11 8f be
       -0.0027232324 -0.194171 -0.06693076 -0.27943268
000210 3c 7d ed bd 77 76 20 3e f9 e9 ec 3d ef d0 b9 3d
       -0.11596152 0.15670191 0.11568064 0.09073054
000220 d6 c0 db be 81 a9 95 be 3c b1 ec 3d af 22 4d 3e
       -0.4292056 -0.29230884 0.11557242 0.20032762
000230 49 72 95 3d 31 fe 41 be 2e a0 10 be 6c 42 7c 3d
       0.07297189 -0.18944623 -0.14123604 0.061586782
000240 52 21 d3 3d cf 72 54 3c 57 8c 70 bc 63 24 e6 3c
       0.1030909 0.012966826 -0.014681897 0.028093522
000250 bb 43 07 bd 43 07 16 3d 79 24 67 bd dd 2e 72 3c
       -0.033023577 0.03662802 -0.056431267 0.014781681
000260 8f 56 9d bc ee da 8e 3c b2 3a 29 3d c1 f6 1c bd
       -0.019206313 0.017438378 0.04131574 -0.03832126
000270 af 00 86 bd b9 28 c3 bd 5b 2a 57 bd 3e 0e 1e bd
       -0.06543099 -0.095292516 -0.052530628 -0.0385878
000280 f4 7b bf 3c 17 6a 30 3d de 91 a7 bd 70 18 c3 3c
       0.023374535 0.043069925 -0.08182119 0.023815364
000290 4a d8 6b bc 31 cf cf 3b de 65 19 3d ff b3 02 bd
       -0.014394829 0.006341838 0.037450664 -0.03190994
0002a0 eb 36 65 bd f8 02 03 3a 53 4a c0 ba 82 7e 1d bd
       -0.055960577 0.0004997696 -0.0014670588 -0.038450725
0002b0 07 db eb 3c 8d 24 55 3c 81 bd 03 bc 94 2a 36 bd
       0.028790964 0.013009203 -0.008040787 -0.0444742
0002c0 11 29 99 3b 47 65 47 bc f5 ea 1b bd 15 c4 51 bd
       0.004674085 -0.0121701425 -0.03806587 -0.05121239
0002d0 35 a7 d0 3c 0b d3 a5 3c 98 f8 bf bc 4f 49 b1 bd
       0.025470356 0.020242235 -0.023433968 -0.08656561
0002e0 0b e0 b3 bd fa 76 b3 bd 07 76 bd bd 1c cb 53 bd
       -0.08782967 -0.08762927 -0.092510276 -0.051707372
0002f0 2d 61 75 bc f6 38 15 39 dc e6 e8 bd e7 82 bd 3c
       -0.014976782 0.00014230967 -0.11372158 0.023133708
000300 94 c3 77 bd 70 79 b2 3c 7f a2 bf bd e1 a8 7e bd
       -0.060489252 0.021786422 -0.093571655 -0.062172774
000310 50 54 dd bd 79 06 ae bd 10 f6 d1 bd c3 9d 52 bb
       -0.10807097 -0.08497328 -0.10252011 -0.003213749
000320 9f 60 4a 3c 95 3f b5 3c 38 9d d1 bb bd 7f 05 bd
       0.012352138 0.022125045 -0.0063969158 -0.032592524
000330 d6 a1 98 bd 67 7e 62 bd 07 33 af bd d0 d0 8a bd
       -0.07452743 -0.055296328 -0.085546546 -0.06778109
000340 1b a2 45 3d 88 03 30 3d f1 c1 85 bd 57 66 0e bd
       0.0482503 0.042972118 -0.06531132 -0.034765568
000350 fd f3 1d bd a7 7d a6 3c f7 59 70 bd 7c 3c 7d 3c
       -0.038562763 0.020323588 -0.058679547 0.015456315
000360 db c1 02 bd 7f e8 ae ba 73 ab 76 bd ef 87 ae bd
       -0.031923156 -0.0013344436 -0.0602221 -0.08522021
000370 48 b2 82 3c bc 47 98 bd 14 31 e2 bc e9 db ab bd
       0.015954152 -0.07435557 -0.027611293 -0.08391554
000380 a4 98 a9 bd 9d 2d 9c bd 11 fd 87 bc 19 f6 ae bb
       -0.08281067 -0.076258875 -0.016600164 -0.0053393957
000390 e9 8d 72 bd d9 5e 4a bc 3a ea 3e 3d ed 63 e5 3c
       -0.059217367 -0.012351715 0.046610095 0.02800175
0003a0 2f 4a 0e 3d 2e dc b0 bd 97 9d b3 bd 8c 0b 5f bd
       0.034738716 -0.08635746 -0.08770292 -0.05445437
0003b0 02 19 b1 bd 06 69 56 bc 9c b3 16 3d be 4c 43 bd
       -0.08647348 -0.013086563 0.036792383 -0.04768061
0003c0 54 2b 53 bd 9e a6 19 3d c2 25 34 3b 56 f8 92 bd
       -0.051554993 0.037512414 0.0027488326 -0.071762726
0003d0 d5 64 03 bc a6 03 75 bd e0 7b 11 3d 87 28 c7 bc
       -0.008019646 -0.059817933 0.035518527 -0.024311317
0003e0 fc cf e6 bd 7d 91 67 3b 3b cc 09 3d 2b 2b b5 bd
       -0.112701386 0.003533452 0.033642035 -0.08846124
0003f0 5a 23 5e bd b5 62 92 bd e2 5c 1a bd f8 b6 fd 3b
       -0.054232933 -0.07147733 -0.037686236 0.007742759

conv2.bias f4 [16]
000000 23 a0 8c bd c5 94 ec bd 1e f1 ed bd cd e0 be 3d
       -0.06866481 -0.11551813 -0.11618255 0.09320221
000010 ca 73 06 be e4 4b 8f 3d 3b 5d ba 3e e6 7f a6 3e
       -0.13130108 0.06996897 0.36399254 0.32519454
000020 98 2a 0e 3d 7f 22 6e 3e 8f 99 74 be 27 f4 b1 3e
       0.03470859 0.23255347 -0.23886703 0.34756586
000030 0a 6f 97 be 23 2d 39 3e fd 27 06 3e cd 2e 87 be
       -0.29576904 0.18083625 0.13101192 -0.26402894

fc1.weight f4 [256, 400]
000000 77 2f 8c 3d ff 93 29 3e b0 aa 02 3e a3 41 35 3e
       0.06844991 0.16560362 0.12760425 0.1770082
000010 59 ab a7 3d 76 9e 6b 3e fc 94 d5 3b c4 2e 02 3e
       0.08186979 0.23009667 0.0065180045 0.12713152
000020 7d 21 cd 3d 60 b7 65 3e 17 e3 22 3e ad 63 f9 3d
       0.10016153 0.22433233 0.1590694 0.12177215
000030 83 e5 08 3e 16 7d 23 3e e0 a7 93 3d b7 66 73 bc
       0.13368802 0.15965685 0.07209754 -0.014856032
000040 44 75 2b 3c f7 15 c1 3d 2f e4 14 3d a1 62 98 3d
       0.01046497 0.094280176 0.036350425 0.07440687
000050 90 6f 94 3d 4f 30 8c bd 19 74 29 3d 50 5e 29 bd
       0.07247841 -0.06845152 0.041370485 -0.04134971
000060 65 31 47 bd 7d b5 49 3c 63 e2 fc bc 1a d2 dc 3c
       -0.04863109 0.012311337 -0.030869668 0.026955653
000070 cd 0b 37 3d d0 17 31 bd e2 35 46 3c 83 49 0c 3d
       0.04468899 -0.0432356 0.012097808 0.034249794
000080 60 0f 45 3c dd 51 12 bd b3 dd 00 bc b5 54 27 bd
       0.0120275915 -0.035722602 -0.007865357 -0.040852267
000090 d0 df a8 3c 9a 7f 72 3a 0d ea 88 3b 32 8e 4c 3d
       0.020614535 0.00092505815 0.0041782917 0.049940296
0000a0 bd 51 8d 3c e2 c2 28 bd 8d 4f 79 3c ca a7 ee bc
       0.01725089 -0.04120148 0.01521672 -0.029132742
0000b0 cd e7 f9 ba 33 17 fc 3b b3 5d 38 bc 4d 0c 37 3d
       -0.0019066274 0.0076931952 -0.011252808 0.044689465
0000c0 a7 d6 6c bc 2f c4 31 bd 15 68 32 3d a4 1d 74 bd
       -0.014455474 -0.043399986 0.04355629 -0.05959858
0000d0 3d c2 12 bd a7 d3 ba bc a7 80 ac 3b 1a 67 47 3d
       -0.03582977 -0.022806002 0.00526436 0.04868231
0000e0 35 a8 00 bd 33 c3 c8 38 7a 99 09 bc 00 00 33 bb
       -0.031410415 9.573102e-05 -0.008398408 -0.0027313232
0000f0 da 33 ad 3c 7d b4 fa 3c cd 5b 0f bd 43 cb 45 3d
       0.021142889 0.030603642 -0.034999657 0.04828955
000100 1a 28 cf 3c f0 4f f2 3c a0 80 44 3d 5d 09 36 3d
       0.025287677 0.029579133 0.04797423 0.044442523
000110 65 f5 24 bd 9c 55 35 3d 4d 5f f6 bc ed d2 88 3c
       -0.04027309 0.044271097 -0.03007474 0.01670214
000120 0b 3c 04 bd 67 e6 d8 3b 0d b2 3d bc e5 f1 01 3d
       -0.032283824 0.006619263 -0.011578095 0.03172483
000130 98 1d 84 3d 80 c9 e6 3d f6 5c d3 3c 05 8d 3c 3d
       0.06450957 0.11268902 0.025801163 0.046032924
000140 42 67 53 3c d2 19 17 3e 3e 67 81 3e 9c 67 d3 3d
       0.012903037 0.14755943 0.2527408 0.10322496
000150 fe a5 3b bd eb d9 70 3d 94 1f 4a 3d a0 e6 21 3e
       -0.0458126 0.058801573 0.04934652 0.15810633
000160 59 13 32 3e c8 01 aa 3c 32 2c 27 be 25 21 fc bd
       0.17390193 0.020752802 -0.16325453 -0.12311009
000170 df 54 02 bc ed be 3a 3d 75 66 29 be 6c db 4d be
       -0.007954805 0.045592237 -0.1654299 -0.20103234
000180 ef 96 06 be d8 16 59 bd 9a c5 0d be 21 9d d0 be
       -0.13143514 -0.0530003 -0.1384491 -0.4074488
000190 0f a6 69 bd a5 aa 86 bd d8 85 21 be dd c5 45 be
       -0.05704313 -0.065755166 -0.15773714 -0.1931376
0001a0 5f 04 08 be f4 90 56 39 63 6b c7 bd ce c1 2f be
       -0.13282917 0.0002046263 -0.09737279 -0.17163774
0001b0 2e c7 3f be b0 85 44 bd 67 c3 ec 3d e5 2f b3 3d
       -0.18728325 -0.047979057 0.115607075 0.087493695
0001c0 44 71 88 3d c7 f0 24 3c d8 fa 4f bc 28 19 47 3e
       0.06662229 0.010067171 -0.012694083 0.1944319
0001d0 2d 03 ba 3d c3 4f 01 3d 1b 2d 15 3d f8 2c 59 3d
       0.09082637 0.031570207 0.03641997 0.0530214
0001e0 d4 1e 5a 3e 07 93 a4 3e f6 d1 a6 3e e9 79 79 3e
       0.21300822 0.32143423 0.32582062 0.24362911
0001f0 b2 b0 c3 3e ba c2 82 bd 6e b9 34 bd 6c d5 f5 bc
       0.38220745 -0.063847974 -0.044122152 -0.030008994
000200 12 a5 1f bc 5d 08 91 bd c0 4a 04 3e e5 85 58 3d
       -0.009743946 -0.07081673 0.1291914 0.052862067
000210 0b 1b 86 bd 4c 93 49 3d 0f 1a b9 3c e7 e9 36 3e
       -0.06548127 0.04921274 0.022595434 0.17862664
000220 3e c3 3a 3d fc f7 0c bc 9b 61 18 3c 07 d8 5f bd
       0.045596354 -0.008604046 0.009300615 -0.05464938
000230 6d 9e b9 3c fe e2 1a be 87 ff 1e be 7b 48 0a be
       0.022658551 -0.15125653 -0.15527163 -0.13504212
000240 5c ef cd 3c f6 f2 38 3d fc c3 5d bd c6 73 eb bd
       0.02513855 0.04515358 -0.054141983 -0.114966914
000250 9b a1 ff 3d 41 81 15 3e 36 85 78 3e c4 64 86 bd
       0.12481996 0.14600088 0.24269566 -0.06562188
000260 ac f4 53 bd db a5 1f 3d 4c 18 9a ba c8 aa 2f bd
       -0.05174701 0.03897653 -0.0011756509 -0.04288748
000270 2f 8d 3a bd 0b 7c a5 bb 0e df 27 3e 58 71 10 3d
       -0.0455448 -0.0050501875 0.16393682 0.035264343
000280 9e d2 4d be 3b 6f 14 be 22 52 db 3c 55 30 5f 3d
       -0.20099875 -0.14495556 0.026772562 0.054489452
000290 0f e5 b1 3d 48 d3 8c be 91 88 9a bd 5f 93 7b bd
       0.086862676 -0.27504945 -0.07545579 -0.06141984
0002a0 23 98 8e 3d 03 af e9 ba 46 75 83 be d6 28 04 be
       0.069626115 -0.0017828647 -0.2567541 -0.12906203
0002b0 e4 1d a4 be 7b b5 cb be ab be 04 be a9 ef 87 be
       -0.32054055 -0.39786896 -0.12963359 -0.26550034
0002c0 b1 18 1a be 9b 10 ae 3c 96 7b 32 3d 84 b8 23 bd
       -0.15048482 0.021248152 0.043574892 -0.03997089
0002d0 8d d5 86 be 52 6c a6 bc 0f 19 1c 3e 8e b2 bf 3c
       -0.263348 -0.020315323 0.15243934 0.023400571
0002e0 3e b0 b7 be ab 59 1e 3b fa f5 12 3e 7a 7d 86 3e
       -0.3587665 0.0024162333 0.14351645 0.26267606
0002f0 1e 6e b4 3d fa 19 19 be 36 1a f6 bc 22 44 13 3e
       0.08810066 -0.14951316 -0.030041795 0.1438146
000300 93 90 5f 3d b7 0b 68 3d 67 e5 f9 bd 00 fd 97 be
       0.054581236 0.056651797 -0.12201958 -0.2968521
000310 9c 7f 3c be 9f 1b 04 be ba 7a bb bc 0e 12 90 bd
       -0.18408054 -0.12901162 -0.022885669 -0.07034694
000320 6f 34 74 3d eb b7 d2 3c 96 cf 80 bb c3 dc 1c 3d
       0.059620317 0.025722465 -0.003930996 0.038296472
000330 c7 60 ab 3d 4f 84 59 3b 35 f1 99 3c f8 e7 56 bc
       0.08368068 0.0033190434 0.018791774 -0.013116829
000340 2f 63 87 3d 35 82 8a bd cc 02 55 be 04 0d 00 bd
       0.06610715 -0.06763116 -0.20801848 -0.031262413
000350 3e 5c 79 be 3e 13 14 bd dc c2 11 be e4 45 57 be
       -0.24351594 -0.036151163 -0.14234489 -0.21022755
000360 d5 e6 4b be 50 34 13 be 5a e8 1e be e6 12 2e be
       -0.19912274 -0.14375424 -0.15518323 -0.16999397
000370 5f b8 6f be 8c 9c fc bd 9b 8a 8d be 3a 28 80 be
       -0.23410176 -0.123345464 -0.2764481 -0.2503069
000380 9c 3f b5 be 4e b1 a1 bb d3 b5 c3 bb e7 e8 ea bd
       -0.35400093 -0.0049344664 -0.005972603 -0.11470204
000390 e7 3b 95 bd 5d 25 a6 bd cf 0a e5 3c fa c2 0c 3d
       -0.07286816 -0.08112595 0.027959256 0.03436563
0003a0 f3 ae 37 be 49 19 aa bd 4d 06 c2 bd 3c 9d 2e 3e
       -0.17937832 -0.08305604 -0.09473858 0.17052168
0003b0 37 5d 07 3e 4f 17 b5 3b 52 b8 89 3d 51 1f 90 bd
       0.13219152 0.0055264602 0.067246094 -0.07037223
0003c0 62 3f 82 3e d3 b9 93 3e 1c 1f 8b 3e a8 0f 19 3e
       0.25438982 0.2885271 0.27172172 0.14947379
0003d0 fc 8c 54 3d b7 cf 48 3e 84 33 89 3e 8e b5 3e 3e
       0.051892266 0.19610487 0.26797116 0.18623945
0003e0 52 c5 b2 3d e7 2d 96 3d 07 2e 06 3e c4 9d 35 3d
       0.08729042 0.07332974 0.13103496 0.04433991
0003f0 68 c2 3a bd 1b 62 ed 3c be cd 6c 3d d7 37 03 3b
       -0.045595556 0.028977444 0.0578134 0.0020022297

fc1.bias f4 [256]
000000 f5 cc a4 3d 30 27 e2 3e ba 5a 53 3d 81 9c f5 3e
       0.08046905 0.44170523 0.051600195 0.47970966
000010 a4 df 1b bd 13 ba b0 3e 63 68 be 3b 19 d1 e3 3e
       -0.038055077 0.34516963 0.0058107837 0.44495466
000020 5c 67 e1 bc 7a 00 b7 3c 64 ae c1 bc 8a 88 45 3e
       -0.027515106 0.022339094 -0.023642726 0.19290367
000030 51 dc 95 3e 76 6d b9 3e 8d e6 e0 bc bf 5b 90 3e
       0.2926965 0.36216325 -0.027453685 0.28194997
000040 72 35 e2 3b d9 53 0b 3f 04 8e 41 3e 72 dc 11 3e
       0.006903344 0.54424816 0.18901831 0.1424425
000050 22 8e d9 3e b3 17 14 3d 63 7b d3 3c ae d8 95 3d
       0.4249125 0.036155414 0.025815671 0.07316719
000060 11 a4 5b 3d 4f 24 68 3c 7a e9 c7 3d 54 c8 8d 3e
       0.053623263 0.014168813 0.09761329 0.276919
000070 8f 46 3f bc 04 f5 62 3b 62 1c f7 3d 1b ac d8 bd
       -0.011674537 0.0034630904 0.120659605 -0.105797015
000080 39 40 92 bd fd 83 dc bb db b1 65 3e 23 71 46 bc
       -0.07141156 -0.0067296014 0.22431128 -0.012111935
000090 0d 46 83 bd da c5 1e bd 81 17 2f 3e 02 e4 9d 3d
       -0.064098455 -0.038762905 0.1709881 0.07709505
0000a0 d8 18 35 3e 7f 3a 78 bd 20 e4 d3 3d c6 0b 81 bd
       0.17685258 -0.06060266 0.10346246 -0.06301074
0000b0 d6 3a b0 3e 89 15 95 3d 35 4b 95 3e 99 41 8a bb
       0.34419888 0.07279498 0.2915894 -0.0042192456
0000c0 ee 6f f5 3c 58 f4 af 3e 1a 61 67 bd a5 7c 9b be
       0.029960599 0.34366107 -0.056489088 -0.30368534
0000d0 54 82 7d 3e 2c 9f bd bc 6b a0 e5 3d 80 f4 80 3d
       0.24756747 -0.023147188 0.11212238 0.06296635
0000e0 fc e6 46 3e 78 2e 89 3e 91 d2 2b 3e ad a7 57 3e
       0.19424051 0.26793265 0.16779543 0.21060057
0000f0 33 65 3e bd 25 f1 d1 bc e1 d7 cc 3d 43 96 99 3d
       -0.04648323 -0.025627682 0.10002113 0.07499363
000100 b8 1a 1e 3e f0 84 91 3e 31 2c aa bd a7 d4 1b bd
       0.1543988 0.28421736 -0.0830921 -0.038044598
000110 63 87 84 3e fb cf 06 3f 3a f3 58 3d 4c 45 3b bc
       0.25884542 0.52661103 0.052966334 -0.011430096
000120 61 6e 7d 3c 30 4d 98 3d c8 17 99 be 4e 5e 1b bc
       0.015468211 0.07436597 -0.29900956 -0.009482933
000130 2b fa 13 3b 27 c3 28 3f 81 26 33 3c a5 c8 06 3f
       0.0022579532 0.6592278 0.010934473 0.5264991
000140 03 9b b3 3d 0c 95 b3 bc 72 04 69 3e f3 35 9d bc
       0.087698005 -0.021921657 0.22755602 -0.019190764
000150 43 b9 d2 3e 2c 99 53 bd 7a f1 97 bd 31 09 00 bd
       0.41156968 -0.051659748 -0.07419105 -0.031258766
000160 80 06 37 bd bc a1 11 3d fa 75 40 bd de 94 d9 3e
       -0.044683933 0.035554633 -0.04698751 0.4249639
000170 4a a8 24 3e 50 22 0e bd 49 93 70 3d 16 1e 1c bb
       0.16079822 -0.03470069 0.058734212 -0.0023821644
000180 6e 9c f9 3d f5 da aa 3e ce 25 e3 bd 9d 07 97 3e
       0.1218804 0.33370176 -0.11091195 0.29497996
000190 83 1d b5 bd ae 36 92 3d 6d 99 9a bd 82 7b a9 bd
       -0.088435195 0.071393356 -0.07548795 -0.0827551
0001a0 f9 30 b4 3e 34 d5 6b bd ca ed 0d 3d f8 93 f8 3d
       0.35193613 -0.057576373 0.0346506 0.12137598
0001b0 43 4c c6 bb a5 da 9f 3e bd 5c a2 bc d4 e6 3f bd
       -0.0060515716 0.312215 -0.019819612 -0.046850994
0001c0 84 a4 35 bc 62 8d bb 3e 4d 2e 8a bd 1f 94 04 3f
       -0.011086587 0.36631304 -0.067471124 0.51788515
0001d0 f8 b7 82 3e 99 c8 b1 3e a4 68 14 be 7e 18 2c 3f
       0.25530982 0.34723356 -0.14493042 0.6722487
0001e0 84 96 17 3e 78 cb b0 3e e8 0d 0b 3c b4 5c cf 3d
       0.14803511 0.34530234 0.008487202 0.101251036
0001f0 9c c3 aa bc 56 69 8e bd f7 e3 52 be 16 2c 2d be
       -0.020845227 -0.06953685 -0.20594774 -0.16911349
000200 22 3b 23 be 8c 8b c6 3e 0b 30 d5 3e 34 91 2f 3e
       -0.15940526 0.3877834 0.41638216 0.17145234
000210 a2 f1 0b 3f 7e 76 9e 3d 17 f8 93 3e 06 be d5 3e
       0.5466558 0.07737444 0.28900215 0.4174654
000220 b8 96 a7 3e 2f 03 95 bc 10 3f ea bc 29 41 86 bd
       0.32732177 -0.018189995 -0.028594524 -0.06555397
000230 cc 5a 57 bd 13 2b f7 3b b2 6e 5e bd a6 ea 0c bd
       -0.052576825 0.0075429766 -0.054304786 -0.034403466
000240 87 ae 83 3e 13 69 ee 3e c8 5a b8 3e 49 e8 1a 3c
       0.2571909 0.4656454 0.3600676 0.009454795
000250 46 fb f0 3e 66 2e 98 3e 86 1a 82 bd 41 bb 89 3c
       0.47066706 0.297229 -0.06352715 0.016812922
000260 cb ee 7e be be 5e d8 3e b9 1d ba 3c 25 8b 87 bd
       -0.2489578 0.42259783 0.022719251 -0.066183366
000270 00 9c 81 be f4 2f 16 3e 0e f8 82 bd 36 2e 3c be
       -0.2531433 0.1466673 -0.06394969 -0.18377003
000280 06 51 b9 3b 29 fe fa 3d 18 08 e3 3e 43 1c c5 3e
       0.0056554107 0.122555085 0.44342113 0.38498124
000290 c9 00 5d 3e 1c ac b6 3d 57 8c c0 3c 3c b4 ab bc
       0.21582331 0.08919546 0.02350442 -0.020959966
0002a0 44 c7 fe 3d e7 20 a7 3e 24 23 b7 3d 47 6a 67 bd
       0.12440351 0.3264229 0.089422494 -0.05649784
0002b0 59 b0 84 3d bf 44 7c 3b 54 0a 62 bd 68 fc 46 3e
       0.06478948 0.0038493124 -0.05518563 0.19432223
0002c0 a5 b0 2e 3e cc d1 42 3b a5 5a 6d 3e 2d f1 e3 3d
       0.17059572 0.00297271 0.2317911 0.11129985
0002d0 bc 09 8a be 58 07 b6 bd 34 b7 7e bd f0 21 21 bd
       -0.26960552 -0.088881195 -0.062186435 -0.039339006
0002e0 d3 01 25 bd e5 69 05 3f b9 5a 35 bc c8 f3 35 bd
       -0.040284943 0.5211471 -0.011068993 -0.04442194
0002f0 88 cf 85 bd fd df 7e 3d 3f 65 55 3c 67 d6 a6 3e
       -0.06533724 0.06222533 0.013024627 0.3258545
000300 86 23 a1 be 8f 65 06 3f 8b 9d 93 3e dc dd 82 3e
       -0.31472415 0.52498716 0.28831133 0.2555989
000310 2a 96 80 bd 17 4b ac 3e 14 6b 60 3e b8 81 80 3e
       -0.062786415 0.3365104 0.21915847 0.25098968
000320 53 57 33 bc a0 40 5d bd e5 ed 97 3d 0b a3 9a bd
       -0.010946113 -0.05401671 0.07418422 -0.07550629
000330 7c 8c ff 39 16 6c f0 3e 79 1f c3 bd 7c ac 85 3e
       0.0004874206 0.46957463 -0.09527487 0.26108158
000340 60 be 9a bd 6f 57 92 3c 9e 4c cd 3c f0 85 42 bd
       -0.075558424 0.017863957 0.025060948 -0.047491014
000350 83 46 cf 3e f2 fb 3f 3e 6f 33 c2 3c 16 2a c1 3e
       0.40483484 0.18748453 0.023706166 0.37727422
000360 16 5b c5 3d 81 e6 a6 bd 5d d4 57 3e 0a 25 80 3d
       0.09636514 -0.08149434 0.21077104 0.06257065
000370 24 12 b0 bd 85 ca 29 3e 03 18 84 bd e0 1b 32 3e
       -0.0859721 0.16581161 -0.06449892 0.17393446
000380 3a 47 52 3c 09 cd e3 3e 27 18 d3 3e 37 4c ef 3d
       0.012834365 0.44492367 0.41229364 0.11684459
000390 30 03 dd bc d3 32 9d 3e c2 49 2e 3e 04 d6 c4 3e
       -0.026979059 0.30702838 0.17020324 0.3844453
0003a0 9b eb 65 3e 05 43 1d be ff 88 8f be 88 0d 5d 3e
       0.22453158 -0.15357597 -0.28034207 0.21587193
0003b0 5e bb cf 3c 09 87 1e 3d 7f 18 e9 ba 81 39 ca 3d
       0.025357898 0.038703 -0.001778379 0.09874249
0003c0 6b f1 87 bc cf ac c7 bd 27 63 f4 bc f3 a6 50 3c
       -0.01659461 -0.097497575 -0.029832436 0.012735116
0003d0 2f a0 72 3e 5f 68 17 bd a0 b7 cb 3e 32 9d 11 bd
       0.23693918 -0.03696477 0.39788532 -0.035550304
0003e0 3f 56 ad 3d 01 1d f2 3c 18 2e 12 3f 30 91 70 3d
       0.08463716 0.029554846 0.57101583 0.05873221
0003f0 5e 50 c5 3e e6 eb 21 3e d9 5f 93 be 06 31 38 3e
       0.38537878 0.15812644 -0.28784063 0.17987451

fc2.weight f4 [10, 256]
000000 02 77 bd 3d 2c a4 32 3e 2f 25 02 3e 50 94 79 be
       0.092512146 0.17445439 0.12709497 -0.24372983
000010 bd 34 71 bb b3 ae d5 3d 15 b6 d2 39 6f 26 6a be
       -0.0036805116 0.10433712 0.00040189983 -0.22866224
000020 5f 3a 29 be 8a 4a 43 be aa aa 0a bd 59 aa 7f bc
       -0.16526173 -0.19071403 -0.033854164 -0.015604579
000030 68 da 37 be 99 84 bd be 8a dd 15 bd 28 66 38 be
       -0.17954409 -0.37015226 -0.03658823 -0.1800772
000040 50 51 2f ba 34 96 33 be 42 a2 f4 3d 41 5b 36 3e
       -0.0006687837 -0.17537767 0.11945011 0.17808248
000050 4f 69 86 3d f8 46 01 bd 67 69 3b bd 1f 0c f6 3d
       0.06563055 -0.03156182 -0.045754816 0.12014031
000060 fa 77 09 3e 3e c7 b4 be b2 c9 fd 3d c4 ea cf 3d
       0.13424674 -0.3530826 0.12391986 0.101522
000070 92 dd 51 3e 86 85 37 3d 40 8c 9d 3d 6b c0 37 be
       0.20494679 0.044805072 0.07692766 -0.17944495
000080 61 08 2c bc 44 ae 0a bd 7d 3a d8 3d dd 57 2f bd
       -0.010500045 -0.0338576 0.10558031 -0.042808402
000090 fc 8e 92 bd 7c 05 53 3c fe db 93 be 4d 07 91 3d
       -0.07156178 0.012879726 -0.28878778 0.07081471
0000a0 01 da 33 be 4a b6 f6 bd 50 1b fb bc 71 9b b1 3d
       -0.1756363 -0.12046488 -0.030652672 0.08672226
0000b0 2a 5b fe bd fa 80 09 3c de db 9f 3d 6d 22 63 bd
       -0.12419732 0.008392567 0.07805608 -0.055452753
0000c0 52 d6 35 be dd a4 99 3d 2d b3 3a bd 1b 39 06 3e
       -0.17757538 0.07502148 -0.04558103 0.13107722
0000d0 ea 57 6b bd 96 93 b6 3c 3c e8 25 bc 73 dc e3 3d
       -0.05745689 0.022287171 -0.01012617 0.11126032
0000e0 7d 78 ad be bc 53 b4 be f9 dc a1 3d 80 5a bb bd
       -0.33880988 -0.35220134 0.07903475 -0.09148121
0000f0 1b 34 3f bd 96 af 84 bd 1c 29 06 3e c7 96 32 3c
       -0.04668055 -0.06478803 0.1310162 0.010900206
000100 27 42 97 3d a3 38 cc bb 52 4c 11 3b d9 ba 43 bc
       0.073856644 -0.0062323376 0.0022170735 -0.011946403
000110 19 b2 1e be 89 fc 0d be 47 97 4c 3e 96 ab 6d bd
       -0.15497626 -0.13865866 0.19979583 -0.058024965
000120 e7 b5 04 3e d1 e6 0d be c0 b9 41 3b a9 94 b0 3d
       0.12960015 -0.1385758 0.0029560179 0.08622105
000130 6e 7b 73 bc 17 12 cc be a9 48 85 3c 8a 21 f9 bc
       -0.014860971 -0.3985755 0.016269999 -0.0304115
000140 35 45 b4 3d 33 71 9e bd b9 64 4f 3e f6 99 8e bd
       0.08802263 -0.07736435 0.20253266 -0.069629595
000150 af 03 63 be 29 44 43 bd 5e b9 2a bc c8 d7 02 bd
       -0.22169374 -0.047672424 -0.010420172 -0.031944066
000160 b3 62 bc bd 94 ed 1e be 68 7a c9 3d 61 45 f6 bd
       -0.09198513 -0.15520316 0.098378 -0.12024952
000170 30 6d 4e 3d 99 23 b7 bc ae 69 0a be 70 c3 5a bc
       0.050397098 -0.022355841 -0.13516876 -0.01335226
000180 30 89 99 3d cb 0f e7 bd 76 35 9b 3c e1 1f f6 3d
       0.074968696 -0.11282309 0.01894639 0.12017799
000190 bd d3 c7 3d c1 d1 12 be 2b aa d0 bc e2 a2 2e 3d
       0.09757183 -0.14337827 -0.025471767 0.042635806
0001a0 77 cb 82 3d e7 61 33 3c 84 15 31 be 8d a3 d0 3d
       0.06386464 0.010948635 -0.17293364 0.10187445
0001b0 00 62 b0 bc 46 41 11 be 30 de aa 3d 29 a8 24 bd
       -0.021531105 -0.14185056 0.0834316 -0.040199433
0001c0 9a 2c 4d 3d 95 b8 24 3e 12 63 17 bd 45 57 26 be
       0.050091363 0.16086037 -0.036959715 -0.16244228
0001d0 62 e3 96 be df 82 88 3d 30 9e 16 3d d9 3f 96 be
       -0.29470354 0.06665587 0.036771953 -0.29345587
0001e0 99 ff 2d be 4e f7 ab 3d ca 1f 1d 3d 5c bd bf 3d
       -0.16992034 0.08396779 0.038360395 0.09362289
0001f0 2f 48 d7 3c 85 72 6f 3c 1d b3 ae 3c b1 0a 80 3d
       0.026279537 0.014614706 0.021325642 0.06252039
000200 63 07 d1 3d b9 48 da 3d 46 17 43 be 4b 09 d7 3d
       0.10206487 0.10658402 -0.19051847 0.10499819
000210 5a 3a c5 bd 7a bb b4 3c 07 0d 53 be 31 35 87 be
       -0.0963027 0.022062052 -0.20610438 -0.2640777
000220 dd 9f 43 be a1 45 3a 3d 01 76 a3 bc 76 77 3c bd
       -0.19103952 0.04547656 -0.01995373 -0.046012364
000230 6d b1 70 bd fd 56 05 3e 23 fb 0e be ea 3e 8c bb
       -0.058762956 0.13021465 -0.13962989 -0.004279961
000240 1e 26 c4 bd e0 95 fb bc 64 c1 36 bd 80 68 3e 3e
       -0.09577583 -0.030711114 -0.044618025 0.18594551
000250 fb 27 af be 0e bc ee 3c 49 47 2a 3c 1d bf 63 bd
       -0.3421019 0.029142406 0.010392972 -0.05560218
000260 b8 02 93 3d bf 13 2c bd 43 85 f2 bc 36 c0 84 3d
       0.07178253 -0.04201102 -0.02960456 0.06481974
000270 54 b0 9a 3c 20 52 fe 3d e5 d4 19 3d 5b ad ae bd
       0.018882908 0.12418008 0.037556548 -0.08529159
000280 a4 63 be 3b ec b7 63 be 96 14 8a bd 62 94 9b 3e
       0.005810218 -0.2223813 -0.06742208 0.30386645
000290 d6 4d c1 ba a2 10 8d 3d d5 47 2c 3d 30 ff 20 3d
       -0.0014747928 0.06887938 0.042060692 0.039305866
0002a0 1a 77 7b bd 4d 93 a8 bd 63 c5 76 be 41 48 32 3e
       -0.06139288 -0.082312204 -0.24098735 0.17410375
0002b0 4b 89 be 3d e0 f4 06 bd 30 d8 bb 3c bb 66 15 bd
       0.0930353 -0.032948375 0.022930235 -0.036474925
0002c0 56 85 35 3e 64 47 b7 ba 42 17 74 3d 0f df 34 bd
       0.17726645 -0.0013983068 0.059592493 -0.044158038
0002d0 a3 fe 8b 3d 6e e1 0a 3d 6f 72 4c bc c2 33 10 bd
       0.068356775 0.033906393 -0.012478455 -0.03520561
0002e0 ec d9 45 3d e3 b3 ab bd 0d 04 e1 bc eb 54 1b bd
       0.04830353 -0.0838392 -0.027467752 -0.03792278
0002f0 9f 27 e1 3c f1 ab 34 3e b2 f2 01 bd e6 0c e4 bd
       0.027484713 0.17643715 -0.031725593 -0.11135273
000300 3f 1b 21 bd 59 6f 7a 3d f3 d7 69 3c 07 82 37 be
       -0.039332625 0.061141346 0.014272678 -0.17920695
000310 dc 69 a5 bc 8d fb 1c be 1e 14 cb 3d fc 39 c6 3d
       -0.02019208 -0.15330334 0.099159464 0.096790284
000320 72 bf 77 bc 5a 63 79 bd 93 6d ae bd 29 5d 4d bd
       -0.015121328 -0.060885765 -0.085169934 -0.050137673
000330 63 fa 46 bd 6f 9a 69 be 3d f6 dd 3d 0c 79 99 3d
       -0.04857863 -0.22812818 0.10837982 0.07493791
000340 e0 bf fa 3b fe 61 4d 3e 5a 72 99 bc 80 dd 51 bd
       0.007652268 0.20056912 -0.018731285 -0.05123663
000350 85 79 9b 3c 6f 07 94 bc 17 18 7e 3c 6a d6 9e 3d
       0.018978843 -0.01806995 0.015508673 0.0775574
000360 0a 16 93 3c 18 c0 69 3d 35 df bd bd a6 d4 93 3d
       0.017954845 0.05706796 -0.09271089 0.07218294
000370 96 e9 56 bd c1 cf 64 be c3 6f ca 3c a0 0f eb 3d
       -0.05246886 -0.22344877 0.024711495 0.114775896
000380 97 90 52 3d 74 eb b8 3c e7 56 77 be 1f 5c 43 be
       0.051407423 0.02257321 -0.24154244 -0.1907811
000390 d4 da 29 be c4 9f 67 be 1b 13 ca 3d 39 79 82 3c
       -0.16587383 -0.2261954 0.09866925 0.015926944
0003a0 3a db 96 bd 98 20 c8 3c 04 41 05 ba 87 68 39 3d
       -0.07366033 0.024429604 -0.00050832354 0.0452657
0003b0 49 2c d3 bd b8 77 d8 3d f0 a7 d0 3c f5 91 a2 bd
       -0.10311181 0.105697095 0.025470704 -0.07937995
0003c0 d1 de ca 3b 53 73 14 bd 7e fa 30 bd a6 78 35 3c
       0.0061911126 -0.036242794 -0.043207638 0.011076128
0003d0 f2 3f 30 3e be 46 88 3c a8 4a 66 bd f0 56 2c 3d
       0.17211893 0.016635295 -0.05622354 0.042075098
0003e0 da 5e 69 3d 60 57 78 bd 18 bb dd bd 24 05 1a be
       0.056975223 -0.060630202 -0.10826701 -0.15041023
0003f0 d9 ea 70 be db df 32 3e bb 0d f7 3c 3c 04 ee 3d
       -0.23527087 0.17468207 0.030157914 0.116219014

fc2.bias f4 [10]
000000 ca 06 a8 be f2 d2 83 be 4d ea 93 be 76 fd 7b 3e
       -0.3281768 -0.25746876 -0.28889695 0.24608406
000010 22 86 a3 3e 00 a7 92 bc e1 ab 18 3e b8 bb 8d bd
       0.31938273 -0.017901897 0.14909317 -0.0692057
000020 b5 fe 3d 3c 14 e6 62 3e
       0.011596371 0.2215808
